media/output/W+/30_w5AH1Mx.npy (npy, 36992 bytes, 1 tensors)

array f4 [1, 18, 512]
0	0x3e69c407	0.22828685
1	0xbdba96b4	-0.091107756
2	0x3eb45b3e	0.35225862
3	0xbce0e71c	-0.027453952
4	0xbe285753	-0.16439562
5	0xbdd835a6	-0.105571076
6	0xbcc29825	-0.023754189
7	0xbdcedebd	-0.10101078
8	0x3dd0fa99	0.10204048
9	0x3c6db8c7	0.014509386
10	0xbda98b24	-0.08278492
11	0x3c63e9c4	0.013910715
12	0xbe61a8d1	-0.22037055
13	0x3c897c68	0.016782954
14	0xbdcd835a	-0.10034819
15	0x3e08709e	0.1332421
16	0xbce470f4	-0.027885891
17	0x3d2e5b62	0.04256762
18	0xbdda82a6	-0.106694505
19	0xbc04ee87	-0.00811351
20	0xbde1e057	-0.110291176
21	0x3eaeb3e5	0.34121624
22	0xbdfbfbee	-0.12303911
23	0x3c3900e3	0.011291715
24	0xbe0dc8f9	-0.13846196
25	0x3f3506c6	0.7071346
26	0x3ce24e37	0.027625186
27	0xbc23d6e6	-0.009999966
28	0x3e5d877a	0.21633711
29	0xbb933606	-0.004492524
30	0xbdc566f2	-0.09638776
31	0xbba200ca	-0.0049439417
32	0x3e7a1fbc	0.24426168
33	0x3ed7eeee	0.42174476
34	0x3eb6d669	0.35710457
35	0x3e8fe713	0.28105983
36	0x3c509017	0.012729666
37	0xbe936327	-0.28786585
38	0xbde0394b	-0.10948428
39	0x3e8a47d4	0.27007926
40	0xbeaae5c2	-0.33378416
41	0x3ed09e94	0.40745986
42	0x3e7b0fcf	0.24517749
43	0xbe4ff3c9	-0.2030784
44	0x3f01c73c	0.5069463
45	0xbd6b4ac0	-0.057444334
46	0x3eb4fc83	0.353489
47	0x3c970dab	0.018439135
48	0x3e79d22d	0.24396582
49	0xbd241e97	-0.040068235
50	0x3d354862	0.044258483
51	0xbd703c1b	-0.05865107
52	0x3f473401	0.77813727
53	0xbca8a8f8	-0.020588383
54	0xbd6db4e4	-0.05803384
55	0xbc4a94f6	-0.012364617
56	0x3e17c15c	0.14819854
57	0x3e44412f	0.1916549
58	0xbd999e2b	-0.07500871
59	0x3d07d282	0.03315974
60	0x3dd931c5	0.10605196
61	0x3ddbf48b	0.10740002
62	0xbdac1e1e	-0.08404182
63	0xbe879e6a	-0.26488048
64	0x3ff77273	1.9331802
65	0x3d045b4a	0.032313623
66	0x3bb9ccb7	0.005670156
67	0x3e9b29c2	0.30305296
68	0x3c8801b1	0.016602369
69	0x3d21253d	0.039342154
70	0xbd3a9da2	-0.045560487
71	0x3e2737da	0.163299
72	0xbe2bd3ad	-0.16779967
73	0x3c08554b	0.008321117
74	0x3e2913ba	0.16511431
75	0x3e3aff9c	0.1826157
76	0x3e601b6e	0.21885464
77	0x3ec6a342	0.3879643
78	0xbe040e60	-0.12896109
79	0x3f2465de	0.64217937
80	0x3d1dacbf	0.03849482
81	0xbdbd48c0	-0.092423916
82	0x3d8200dd	0.06347821
83	0x3f49935c	0.7874048
84	0x3dbb71df	0.091525786
85	0x3faf71aa	1.3706563
86	0x3e83fae8	0.25777364
87	0x3e0176e2	0.12643006
88	0xbde92a30	-0.11385
89	0x3ebe39af	0.37153384
90	0x3f95ee88	1.1713419
91	0xbdbc5f50	-0.09197867
92	0xbb05c544	-0.002041177
93	0xbe1ce049	-0.15319933
94	0x3e72dfd6	0.23718199
95	0xbdf194c6	-0.117959544
96	0x3d40aca0	0.047039628
97	0x3e28c35d	0.16480775
98	0x3eed8a8a	0.4639476
99	0x3d27499c	0.040841684
100	0x3f6f96d4	0.9358952
101	0x3f0bba79	0.5458141
102	0x3ce02858	0.027362987
103	0x3d1f39b4	0.03887339
104	0x3e17fab7	0.14841734
105	0xbddea1af	-0.108706824
106	0x3ef8e1dd	0.4860982
107	0x3f15f796	0.5858091
108	0x3d63f3f3	0.05565257
109	0xbd832b48	-0.064047396
110	0xbc29c26a	-0.010361293
111	0xbe840c31	-0.2579055
112	0x3d7d4b1f	0.06183922
113	0x3eb8a487	0.36063024
114	0xbdef0bce	-0.116721734
115	0x3edd92ee	0.4327616
116	0xbe1082fd	-0.14112468
117	0x3e1136a3	0.14180999
118	0xbdd3b620	-0.10337472
119	0x3d919de3	0.071101926
120	0x3eabfccf	0.33591315
121	0xbda9d92d	-0.08293376
122	0x3b3d94a7	0.0028927715
123	0x3e99632e	0.2995848
124	0xbdcbb79a	-0.099471286
125	0xbc17fb57	-0.009276233
126	0x3e3261ad	0.17420073
127	0xbdeedda7	-0.116633706
128	0x3e3a6dec	0.18205994
129	0x3c62e9e8	0.013849713
130	0x3f3a97c8	0.7288785
131	0x3e0683c6	0.13136205
132	0xbdaef31a	-0.08542462
133	0xbdaf9eab	-0.085751854
134	0x3a92450a	0.0011159491
135	0x3d550f7b	0.052016716
136	0x3b7be5ba	0.0038436488
137	0x3dc7d0b7	0.09756606
138	0x3f1c2340	0.6099129
139	0x3cb0f0c1	0.021599175
140	0xbe8d9fee	-0.2766108
141	0x3c52da05	0.012869363
142	0x3dc936b7	0.09824889
143	0x3d2daa06	0.042398475
144	0x3b8386a3	0.0040138527
145	0x3e02575a	0.12728634
146	0x3bed0eb2	0.007234418
147	0x3f59c2c9	0.85062844
148	0xbdaf5035	-0.0856022
149	0xbd9e02f3	-0.07715406
150	0x3f599f0c	0.8500831
151	0xbdb626b6	-0.08894102
152	0xbd40e655	-0.04709466
153	0x3eacc616	0.33744878
154	0xbdea57d6	-0.114425346
155	0xbd1c2e2c	-0.03812997
156	0xbd56aa08	-0.05240825
157	0x3e34b67c	0.17647737
158	0xbd36ccdd	-0.044628967
159	0x3c70e4d4	0.014702994
160	0x3e454b54	0.19267017
161	0x3e7a8e90	0.24468446
162	0x3df9bcef	0.12194239
163	0xbd84a623	-0.064770006
164	0x3e2b5418	0.16731298
165	0x3ddfe5eb	0.10932525
166	0x3e638d33	0.22221832
167	0x3de8abca	0.11360891
168	0xbe03c6a3	-0.12868743
169	0x3e4dad61	0.2008567
170	0x3d3836fe	0.04497432
171	0x3f6d9453	0.9280445
172	0x3e1a9145	0.15094478
173	0xbd865833	-0.065597914
174	0x3c0287c1	0.007966937
175	0xbccbebc4	-0.024892695
176	0x3db74eb1	0.08950556
177	0x3ef181df	0.47169396
178	0xbe087f6f	-0.13329862
179	0x3ddd70f9	0.108125634
180	0x3db6bb55	0.089224495
181	0x3d9e5141	0.07730342
182	0x3e1e15e1	0.15438034
183	0xbd31bcda	-0.043392994
184	0x3eb3b39f	0.35097978
185	0x3e5100b7	0.20410429
186	0x3e84a2de	0.25905508
187	0x3f5c6e4e	0.8610581
188	0xbe16ca20	-0.14725542
189	0xbdde6f84	-0.10861114
190	0xbca3778e	-0.019954469
191	0x3e3bf3ba	0.18354693
192	0x3e041379	0.12898053
193	0x3eb241ee	0.34815925
194	0x3e7da487	0.24769793
195	0xbcd9a1dd	-0.02656644
196	0xbd4aef9e	-0.049544923
197	0x3e8e2870	0.27765226
198	0xbc206ae0	-0.009791106
199	0x3ef32bb5	0.47494283
200	0x3e8ece10	0.27891588
201	0xbe424c12	-0.18974331
202	0x3de4733a	0.1115479
203	0x3e5f7cbb	0.21824925
204	0x3d4d9ac9	0.050196443
205	0x3e58bdcd	0.21166153
206	0xbc8959a6	-0.01676638
207	0x3f076a83	0.528969
208	0x3f0a144c	0.5393722
209	0x3e8256b1	0.25456765
210	0x3e643fe0	0.22289991
211	0xbdd69438	-0.10477489
212	0x3e91d25e	0.2848081
213	0x3d41b95d	0.047295917
214	0x3e57e753	0.21084337
215	0xbd225a28	-0.03963676
216	0xbd9cf6f1	-0.07664288
217	0xbc7e70b7	-0.015529803
218	0xbd6a345d	-0.057178844
219	0xbddeecb7	-0.108849935
220	0x3d141e4f	0.036161717
221	0xbca9e4a4	-0.020738907
222	0xbc53506e	-0.012897594
223	0xbc3e7bed	-0.011626226
224	0x3ec55bb7	0.38546535
225	0x3c70578f	0.014669313
226	0x3e96919a	0.2940796
227	0x3ee66f85	0.45006958
228	0xbcf48e1e	-0.029852923
229	0x3e53993c	0.20663923
230	0xbd999cf1	-0.07500637
231	0x3ec620d5	0.38696924
232	0x3f6ff2f8	0.93730116
233	0xbd236e38	-0.039900035
234	0x3f60b864	0.8778136
235	0x3ce69fed	0.02815243
236	0xbd7c2c89	-0.06156591
237	0x3e8d2780	0.275692
238	0x3cf1342a	0.02944382
239	0xbdfdf7d8	-0.12400788
240	0x3e97f575	0.29679456
241	0x3d3dead2	0.04636652
242	0xbda2d562	-0.07950856
243	0x3dd8e299	0.10590095
244	0x3d81d85c	0.063400954
245	0xbd0854df	-0.033284064
246	0x3da19fae	0.078917846
247	0x3f2567e8	0.64611673
248	0x3ec8eb7c	0.3924216
249	0xbe1819db	-0.14853613
250	0xbccfc2cb	-0.02536144
251	0xbd425b68	-0.047450453
252	0x3db9d5ac	0.09073958
253	0x3e941e7a	0.28929502
254	0x3e51edf0	0.20500922
255	0xbdacf1cf	-0.08444559
